…
---------- Networks initialized -------------
DataParallel(
  (module): UNetGenerator(
    (model): UnetSkipConnectionBlock(
      (submodule): UnetSkipConnectionBlock(
        (submodule): UnetSkipConnectionBlock(
          (submodule): UnetSkipConnectionBlock(
            (submodule): UnetSkipConnectionBlock(
              (submodule): UnetSkipConnectionBlock(
                (submodule): UnetSkipConnectionBlock(
                  (submodule): UnetSkipConnectionBlock(
                    (down): Sequential(
                      (0): LeakyReLU(negative_slope=0.2, inplace=True)
                      (1): Conv2d(512, 512, kernel_size=(4, 4), stride=(2, 2), padding=(1, 1), bias=False)
                    )
                    (up): Sequential(
                      (0): ReLU(inplace=True)
                      (1): ConvTranspose2d(640, 512, kernel_size=(4, 4), stride=(2, 2), padding=(1, 1), bias=False)
                      (2): BatchNorm2d(512, eps=1e-05, momentum=0.1, affine=True, track_running_stats=True)
                    )
                  )
                  (down): Sequential(
                    (0): LeakyReLU(negative_slope=0.2, inplace=True)
                    (1): Conv2d(512, 512, kernel_size=(4, 4), stride=(2, 2), padding=(1, 1), bias=False)
                    (2): BatchNorm2d(512, eps=1e-05, momentum=0.1, affine=True, track_running_stats=True)
                  )
                  (up): Sequential(
                    (0): ReLU(inplace=True)
                    (1): ConvTranspose2d(1024, 512, kernel_size=(4, 4), stride=(2, 2), padding=(1, 1), bias=False)
                    (2): BatchNorm2d(512, eps=1e-05, momentum=0.1, affine=True, track_running_stats=True)
                    (3): Dropout(p=0.5, inplace=False)
                  )
                )
                (down): Sequential(
                  (0): LeakyReLU(negative_slope=0.2, inplace=True)
                  (1): Conv2d(512, 512, kernel_size=(4, 4), stride=(2, 2), padding=(1, 1), bias=False)
                  (2): BatchNorm2d(512, eps=1e-05, momentum=0.1, affine=True, track_running_stats=True)
                )
                (up): Sequential(
                  (0): ReLU(inplace=True)
                  (1): ConvTranspose2d(1024, 512, kernel_size=(4, 4), stride=(2, 2), padding=(1, 1), bias=False)
                  (2): BatchNorm2d(512, eps=1e-05, momentum=0.1, affine=True, track_running_stats=True)
                  (3): Dropout(p=0.5, inplace=False)
                )
              )
              (down): Sequential(
                (0): LeakyReLU(negative_slope=0.2, inplace=True)
                (1): Conv2d(512, 512, kernel_size=(4, 4), stride=(2, 2), padding=(1, 1), bias=False)
                (2): BatchNorm2d(512, eps=1e-05, momentum=0.1, affine=True, track_running_stats=True)
              )
              (up): Sequential(
                (0): ReLU(inplace=True)
                (1): ConvTranspose2d(1024, 512, kernel_size=(4, 4), stride=(2, 2), padding=(1, 1), bias=False)
                (2): BatchNorm2d(512, eps=1e-05, momentum=0.1, affine=True, track_running_stats=True)
                (3): Dropout(p=0.5, inplace=False)
              )
            )
            (down): Sequential(
              (0): LeakyReLU(negative_slope=0.2, inplace=True)
              (1): Conv2d(256, 512, kernel_size=(4, 4), stride=(2, 2), padding=(1, 1), bias=False)
              (2): BatchNorm2d(512, eps=1e-05, momentum=0.1, affine=True, track_running_stats=True)
            )
            (up): Sequential(
              (0): ReLU(inplace=True)
              (1): ConvTranspose2d(1024, 256, kernel_size=(4, 4), stride=(2, 2), padding=(1, 1), bias=False)
              (2): BatchNorm2d(256, eps=1e-05, momentum=0.1, affine=True, track_running_stats=True)
            )
          )
          (down): Sequential(
            (0): LeakyReLU(negative_slope=0.2, inplace=True)
            (1): Conv2d(128, 256, kernel_size=(4, 4), stride=(2, 2), padding=(1, 1), bias=False)
            (2): BatchNorm2d(256, eps=1e-05, momentum=0.1, affine=True, track_running_stats=True)
          )
          (up): Sequential(
            (0): ReLU(inplace=True)
            (1): ConvTranspose2d(512, 128, kernel_size=(4, 4), stride=(2, 2), padding=(1, 1), bias=False)
            (2): BatchNorm2d(128, eps=1e-05, momentum=0.1, affine=True, track_running_stats=True)
          )
        )
        (down): Sequential(
          (0): LeakyReLU(negative_slope=0.2, inplace=True)
          (1): Conv2d(64, 128, kernel_size=(4, 4), stride=(2, 2), padding=(1, 1), bias=False)
          (2): BatchNorm2d(128, eps=1e-05, momentum=0.1, affine=True, track_running_stats=True)
        )
        (up): Sequential(
          (0): ReLU(inplace=True)
          (1): ConvTranspose2d(256, 64, kernel_size=(4, 4), stride=(2, 2), padding=(1, 1), bias=False)
          (2): BatchNorm2d(64, eps=1e-05, momentum=0.1, affine=True, track_running_stats=True)
        )
      )
      (down): Sequential(
        (0): Conv2d(3, 64, kernel_size=(4, 4), stride=(2, 2), padding=(1, 1), bias=False)
      )
      (up): Sequential(
        (0): ReLU(inplace=True)
        (1): ConvTranspose2d(128, 3, kernel_size=(4, 4), stride=(2, 2), padding=(1, 1))
        (2): Tanh()
      )
    )
    (embedder): Embedding(704, 128)
  )
)
[Network G] Total number of parameters : 55.553 M
DataParallel(
  (module): Discriminator(
    (model): Sequential(
      (0): Conv2d(6, 64, kernel_size=(5, 5), stride=(2, 2), padding=(2, 2))
      (1): LeakyReLU(negative_slope=0.2, inplace=True)
      (2): Conv2d(64, 128, kernel_size=(5, 5), stride=(2, 2), padding=(2, 2), bias=False)
      (3): BatchNorm2d(128, eps=1e-05, momentum=0.1, affine=True, track_running_stats=True)
      (4): LeakyReLU(negative_slope=0.2, inplace=True)
      (5): Conv2d(128, 256, kernel_size=(5, 5), stride=(2, 2), padding=(2, 2), bias=False)
      (6): BatchNorm2d(256, eps=1e-05, momentum=0.1, affine=True, track_running_stats=True)
      (7): LeakyReLU(negative_slope=0.2, inplace=True)
      (8): Conv2d(256, 512, kernel_size=(5, 5), stride=(1, 1), padding=(2, 2), bias=False)
      (9): BatchNorm2d(512, eps=1e-05, momentum=0.1, affine=True, track_running_stats=True)
      (10): LeakyReLU(negative_slope=0.2, inplace=True)
      (11): Conv2d(512, 1, kernel_size=(5, 5), stride=(1, 1), padding=(2, 2))
    )
    (binary): Linear(in_features=1024, out_features=1, bias=True)
    (catagory): Linear(in_features=1024, out_features=704, bias=True)
  )
)
[Network D] Total number of parameters : 5.048 M
-----------------------------------------------
unpickled total 4083 examples
unpickled total 36471 examples
Epoch: [ 0], [   0/  92] time: 3.36, d_loss: 2.05530, g_loss: 79.85654, category_loss: 1.39337, cheat_loss: 1.05726, const_loss: 0.01130, l1_loss: 77.76085
Checkpoint: save checkpoint step 0
…
